…
tion\n        - cs\n            - ...\n        - ...\n```\n\n# Building a model\n## Approach 1: Simple, custom CNN\n\n**Code**\n* [custom_model.ipynb](https://gist.github.com/muety/78bf6d7929e4facd199ad0ffea0b3ad9)\n\n\nI decided to start simple and see if anything can be learned from the data at all. I defined the following simple CNN architecture in Keras: \n\n```\n_________________________________________________________________\nLayer (type)                 Output Shape              Param #   \n=================================================================\nconv2d_1 (Conv2D)            (None, 62, 62, 32)        320       \n_________________________________________________________________\nmax_pooling2d_1 (MaxPooling2 (None, 31, 31, 32)        0         \n_________________________________________________________________\nconv2d_2 (Conv2D)            (None, 29, 29, 32)        9248      \n_________________________________________________________________\nmax_pooling2d_2 (MaxPooling2 (None, 14, 14, 32)        0         \n_________________________________________________________________\nconv2d_3 (Conv2D)            (None, 12, 12, 32)        9248      \n_________________________________________________________________\nmax_pooling2d_3 (MaxPooling2 (None, 6, 6, 32)          0         \n_________________________________________________________________\nflatten_1 (Flatten)          (None, 1152)              0         \n_________________________________________________________________\ndense_1 (Dense)              (None, 64)                73792     \n_________________________________________________________________\ndropout_1 (Dropout)          (None, 64)                0         \n_________________________________________________________________\ndense_2 (Dense)              (None, 4)                 260       \n=================================================================\nTotal params: 92,868\nTrainable params: 92,868\nNon-trainable params: 0\n```\n\nI used Keras' [ImageDataGenerator](https://keras.io/preprocessing/image/) (great tool!) to read images into NumPy arrays, re-scale them to a shape of `(64, 63, 3)` (64 x 64 pixels, RGB) and perform some data augmentation using transformations l
…
model, with the final classification layers cut off, is used to extract 128 _bottleneck features_ for every image. Subsequently, another tiny model, consisting of fully-connected layers, is trained on these features to perform the eventual classification. The weights are persisted to a file and loaded again in step 2.\n\nThe model architecture looks like this:\n\n```\n________________________________________________________________\nLayer (type)                 Output Shape              Param #   \n=================================================================\ndense_1 (Dense)              (None, 128)               65664     \n_________________________________________________________________\ndropout_1 (Dropout)          (None, 128)               0         \n_________________________________________________________________\ndense_2 (Dense)              (None, 4)                 516       \n=================================================================\nTotal params: 66,180\nTrainable params: 66,180\nNon-trainable params: 0\n```\n\n### Step 2: Fine-tuning \nIn this second step, a pre-trained VGGFace model (with the first n - 3 layers freezed) is used in combination with the pre-trained top layers from step 1 to fine-tune weights for our specific classification task. It takes mini-batches of (128, 128, 3)-shaped tensors (128 x 128 pixels, RGB) as input and predicts probabilities for each of our four target classes.\n\nThe architecture of the combined model looks like this:\n```\n_________________________________________________________________\nLayer (type)                 Output Shape              Param #   \n=================================================================\nvggface_vgg16 (Model)        (None, 512)               14714688  \n_________________________________________________________________\ntop (Sequential)             (None, 4)                 66180     \n=================================================================\nTotal params: 14,780,868\nTrainable params: 2,425,988\nNon-trainable params: 12,354,880\n```\n\n`top` is the model described in step 1, `vggface_vgg16` is a VGG16 model and looks like this:\n```\n_________________________________________________________________\nLayer (type)                 Output Shape              Param #   \n=================================================================\ninput_3 (InputLayer)         (None, 128, 128, 3)       0         \n_________________________________________________________________\nconv1_1 (Conv2D)             (None, 128, 128, 64)      1792      \n_________________________________________________________________\nconv1_2 (Conv2D)             (None, 128, 128, 64)      36928     \n_________________________________________________________________\npool1 (MaxPooling2D)         (None, 64, 64, 64)        0         \n_________________________________________________________________\nconv2_1 (Conv2D)             (None, 64, 64, 128)       73856     \n_________________________________________________________________\nconv2_2 (Conv2D)             (None, 64, 64, 128)       147584    \n_________________________________________________________________\npool2 (MaxPooling2D)         (None, 32, 32, 128)       0         \n_________________________________________________________________\nconv3_1 (Conv2D)             (None, 32, 32, 256)       295168    \n_________________________________________________________________\nconv3_2 (Conv2D)             (None, 32, 32, 256)       590080    \n_________________________________________________________________\nconv3_3 (Conv2D)             (None, 32, 32, 256)       590080    \n_________________________________________________________________\npool3 (MaxPooling2D)         (None, 16, 16, 256)       0         \n_________________________________________________________________\nconv4_1 (Conv2D)             (None, 16, 16, 512)       1180160   \n_________________________________________________________________\nconv4_2 (Conv2D)             (None, 16, 16, 512)       2359808   \n_________________________________________________________________\nconv4_3 (Conv2D)             (None, 16, 16, 512)       2359808   \n_________________________________________________________________\npool4 (MaxPooling2D)         (None, 8, 8, 512)         0         \n_________________________________________________________________\nconv5_1 (Conv2D)             (None, 8, 8, 512)         2359808   \n_________________________________________________________________\nconv5_2 (Conv2D)             (None, 8, 8, 512)         2359808   \n_________________________________________________________________\nconv5_3 (Conv2D)             (None, 8, 8, 512)         2359808   \n_________________________________________________________________\npool5 (MaxPooling2D)         (None, 4, 4, 512)         0         \n_________________________________________________________________\nglobal_max_pooling2d_3 (Glob (None, 512)               0         \n=================================================================\nTotal params: 14,714,688\nTrainable params: 2,359,808\nNon-trainable params: 12,354,880\n```\n\n\nI was using Keras _ImageDataGenerator_ again for loading the data, augmenting (3x) and resizing it. As [recommended](https://blog.keras.io/building-powerful-image-classification-models-using-very-little-data.html), _stochast
…
line\">40</span><br><span class=\"line\">41</span><br><span class=\"line\">42</span><br><span class=\"line\">43</span><br><span class=\"line\">44</span><br><span class=\"line\">45</span><br><span class=\"line\">46</span><br></pre></td><td class=\"code\"><pre><span class=\"line\">_________________________________________________________________</span><br><span class=\"line\">Layer (type)                 Output Shape              Param #   </span><br><span class=\"line\">=================================================================</span><br><span class=\"line\">input_3 (InputLayer)         (None, 128, 128, 3)       0         </span><br><span class=\"line\">_________________________________________________________________</span><br><span class=\"line\">conv1_1 (Conv2D)             (None, 128, 128, 64)      1792      </span><br><span class=\"line\">_________________________________________________________________</span><br><span class=\"line\">conv1_2 (Conv2D)             (None, 128, 128, 64)      36928     </span><br><span class=\"line\">_________________________________________________________________</span><br><span class=\"line\">pool1 (MaxPooling2D)         (None, 64, 64, 64)        0         </span><br><span class=\"line\">_________________________________________________________________</span><br><span class=\"line\">conv2_1 (Conv2D)             (None, 64, 64, 128)       73856     </span><br><span class=\"line\">_________________________________________________________________</span><br><span class=\"line\">conv2_2 (Conv2D)             (None, 64, 64, 128)       147584    </span><br><span class=\"line\">_________________________________________________________________</span><br><span class=\"line\">pool2 (MaxPooling2D)         (None, 32, 32, 128)       0         </span><br><span class=\"line\">_________________________________________________________________</span><br><span class=\"line\">conv3_1 (Conv2D)             (None, 32, 32, 256)       295168    </span><br><span class=\"line\">_________________________________________________________________</span><br><span class=\"line\">conv3_2 (Conv2D)             (None, 32, 32, 256)       590080    </span><br><span class=\"line\">_________________________________________________________________</span><br><span class=\"line\">conv3_3 (Conv2D)             (None, 32, 32, 256)       590080    </span><br><span class=\"line\">_________________________________________________________________</span><br><span class=\"line\">pool3 (MaxPooling2D)         (None, 16, 16, 256)       0         </span><br><span class=\"line\">_________________________________________________________________</span><br><span class=\"line\">conv4_1 (Conv2D)             (None, 16, 16, 512)       1180160   </span><br><span class=\"line\">_________________________________________________________________</span><br><span class=\"line\">conv4_2 (Conv2D)             (None, 16, 16, 512)       2359808   </span><br><span class=\"line\">_________________________________________________________________</span><br><span class=\"line\">conv4_3 (Conv2D)             (None, 16, 16, 512)       2359808   </span><br><span class=\"line\">_________________________________________________________________</span><br><span class=\"line\">pool4 (MaxPooling2D)         (None, 8, 8, 512)         0         </span><br><span class=\"line\">_________________________________________________________________</span><br><span class=\"line\">conv5_1 (Conv2D)             (None, 8, 8, 512)         2359808   </span><br><span class=\"line\">_________________________________________________________________</span><br><span class=\"line\">conv5_2 (Conv2D)             (None, 8, 8, 512)         2359808   </span><br><span class=\"line\">_________________________________________________________________</span><br><span class=\"line\">conv5_3 (Conv2D)             (None, 8, 8, 512)         2359808   </span><br><span class=\"line\">_________________________________________________________________</span><br><span class=\"line\">pool5 (MaxPooling2D)         (None, 4, 4, 512)         0         </span><br><span class=\"line\">_________________________________________________________________</span><br><span class=\"line\">global_max_pooling2d_3 (Glob (None, 512)               0         </span><br><span class=\"line\">=================================================================</span><br><span class=\"line\">Total params: 14,714,688</span><br><span class=\"line\">Trainable params: 2,359,808</span><br><span class=\"line\">Non-trainable params: 12,354,880</span><br></pre></td></tr></table></figure></p>\n<p>I was using Keras <em>ImageDataGenerator</em> again for loadin
…
